…
2022-06-15 15:27:42.039570: I tensorflow/core/common_runtime/gpu/gpu_device.cc:1525] Created device /job:localhost/replica:0/task:0/device:GPU:0 with 21676 MB memory:  -> device: 0, name: NVIDIA GeForce RTX 3090, pci bus id: 0000:01:00.0, compute capability: 8.6
Model: "model"
__________________________________________________________________________________________________
 Layer (type)                   Output Shape         Param #     Connected to
==================================================================================================
 input_1 (InputLayer)           [(None, 256, 256, 3  0           []
                                )]

 conv1_pad (ZeroPadding2D)      (None, 262, 262, 3)  0           ['input_1[0][0]']

 conv1_conv (Conv2D)            (None, 128, 128, 64  9472        ['conv1_pad[0][0]']
                                )

 conv1_bn (BatchNormalization)  (None, 128, 128, 64  256         ['conv1_conv[0][0]']
                                )

 conv1_relu (Activation)        (None, 128, 128, 64  0           ['conv1_bn[0][0]']
                                )

 pool1_pad (ZeroPadding2D)      (None, 130, 130, 64  0           ['conv1_relu[0][0]']
                                )

 pool1_pool (MaxPooling2D)      (None, 64, 64, 64)   0           ['pool1_pad[0][0]']

 conv2_block1_1_conv (Conv2D)   (None, 64, 64, 64)   4160        ['pool1_pool[0][0]']

 conv2_block1_1_bn (BatchNormal  (None, 64, 64, 64)  256         ['conv2_block1_1_conv[0][0]']
 ization)

 conv2_block1_1_relu (Activatio  (None, 64, 64, 64)  0           ['conv2_block1_1_bn[0][0]']
 n)

 conv2_block1_2_conv (Conv2D)   (None, 64, 64, 64)   36928       ['conv2_block1_1_relu[0][0]']

 conv2_block1_2_bn (BatchNormal  (None, 64, 64, 64)  256         ['conv2_block1_2_conv[0][0]']
 ization)

 conv2_block1_2_relu (Activatio  (None, 64, 64, 64)  0           ['conv2_block1_2_bn[0][0]']
 n)

 conv2_block1_0_conv (Conv2D)   (None, 64, 64, 256)  16640       ['pool1_pool[0][0]']

 conv2_block1_3_conv (Conv2D)   (None, 64, 64, 256)  16640       ['conv2_block1_2_relu[0][0]']

 conv2_block1_0_bn (BatchNormal  (None, 64, 64, 256)  1024       ['conv2_block1_0_conv[0][0]']
 ization)

 conv2_block1_3_bn (BatchNormal  (None, 64, 64, 256)  1024       ['conv2_block1_3_conv[0][0]']
 ization)

 conv2_block1_add (Add)         (None, 64, 64, 256)  0           ['conv2_block1_0_bn[0][0]',
                                                                  'conv2_block1_3_bn[0][0]']

 conv2_block1_out (Activation)  (None, 64, 64, 256)  0           ['conv2_block1_add[0][0]']

 conv2_block2_1_conv (Conv2D)   (None, 64, 64, 64)   16448       ['conv2_block1_out[0][0]']

 conv2_block2_1_bn (BatchNormal  (None, 64, 64, 64)  256         ['conv2_block2_1_conv[0][0]']
 ization)

 conv2_block2_1_relu (Activatio  (None, 64, 64, 64)  0           ['conv2_block2_1_bn[0][0]']
 n)

 conv2_block2_2_conv (Conv2D)   (None, 64, 64, 64)   36928       ['conv2_block2_1_relu[0][0]']

 conv2_block2_2_bn (BatchNormal  (None, 64, 64, 64)  256         ['conv2_block2_2_conv[0][0]']
 ization)

 conv2_block2_2_relu (Activatio  (None, 64, 64, 64)  0           ['conv2_block2_2_bn[0][0]']
 n)

 conv2_block2_3_conv (Conv2D)   (None, 64, 64, 256)  16640       ['conv2_block2_2_relu[0][0]']

 conv2_block2_3_bn (BatchNormal  (None, 64, 64, 256)  1024       ['conv2_block2_3_conv[0][0]']
 ization)

 conv2_block2_add (Add)         (None, 64, 64, 256)  0           ['conv2_block1_out[0][0]',
                                                                  'conv2_block2_3_bn[0][0]']

 conv2_block2_out (Activation)  (None, 64, 64, 256)  0           ['conv2_block2_add[0][0]']

 conv2_block3_1_conv (Conv2D)   (None, 64, 64, 64)   16448       ['conv2_block2_out[0][0]']

 conv2_block3_1_bn (BatchNormal  (None, 64, 64, 64)  256         ['conv2_block3_1_conv[0][0]']
 ization)

 conv2_block3_1_relu (Activatio  (None, 64, 64, 64)  0           ['conv2_block3_1_bn[0][0]']
 n)

 conv2_block3_2_conv (Conv2D)   (None, 64, 64, 64)   36928       ['conv2_block3_1_relu[0][0]']

 conv2_block3_2_bn (BatchNormal  (None, 64, 64, 64)  256         ['conv2_block3_2_conv[0][0]']
 ization)

 conv2_block3_2_relu (Activatio  (None, 64, 64, 64)  0           ['conv2_block3_2_bn[0][0]']
 n)

 conv2_block3_3_conv (Conv2D)   (None, 64, 64, 256)  16640       ['conv2_block3_2_relu[0][0]']

 conv2_block3_3_bn (BatchNormal  (None, 64, 64, 256)  1024       ['conv2_block3_3_conv[0][0]']
 ization)

 conv2_block3_add (Add)         (None, 64, 64, 256)  0           ['conv2_block2_out[0][0]',
                                                                  'conv2_block3_3_bn[0][0]']

 conv2_block3_out (Activation)  (None, 64, 64, 256)  0           ['conv2_block3_add[0][0]']

 conv3_block1_1_conv (Conv2D)   (None, 32, 32, 128)  32896       ['conv2_block3_out[0][0]']

 conv3_block1_1_bn (BatchNormal  (None, 32, 32, 128)  512        ['conv3_block1_1_conv[0][0]']
 ization)

 conv3_block1_1_relu (Activatio  (None, 32, 32, 128)  0          ['conv3_block1_1_bn[0][0]']
 n)

 conv3_block1_2_conv (Conv2D)   (None, 32, 32, 128)  147584      ['conv3_block1_1_relu[0][0]']

 conv3_block1_2_bn (BatchNormal  (None, 32, 32, 128)  512        ['conv3_block1_2_conv[0][0]']
 ization)

 conv3_block1_2_relu (Activatio  (None, 32, 32, 128)  0          ['conv3_block1_2_bn[0][0]']
 n)

 conv3_block1_0_conv (Conv2D)   (None, 32, 32, 512)  131584      ['conv2_block3_out[0][0]']

 conv3_block1_3_conv (Conv2D)   (None, 32, 32, 512)  66048       ['conv3_block1_2_relu[0][0]']

 conv3_block1_0_bn (BatchNormal  (None, 32, 32, 512)  2048       ['conv3_block1_0_conv[0][0]']
 ization)

 conv3_block1_3_bn (BatchNormal  (None, 32, 32, 512)  2048       ['conv3_block1_3_conv[0][0]']
 ization)

 conv3_block1_add (Add)         (None, 32, 32, 512)  0           ['conv3_block1_0_bn[0][0]',
                                                                  'conv3_block1_3_bn[0][0]']

 conv3_block1_out (Activation)  (None, 32, 32, 512)  0           ['conv3_block1_add[0][0]']

 conv3_block2_1_conv (Conv2D)   (None, 32, 32, 128)  65664       ['conv3_block1_out[0][0]']

 conv3_block2_1_bn (BatchNormal  (None, 32, 32, 128)  512        ['conv3_block2_1_conv[0][0]']
 ization)

 conv3_block2_1_relu (Activatio  (None, 32, 32, 128)  0          ['conv3_block2_1_bn[0][0]']
 n)

 conv3_block2_2_conv (Conv2D)   (None, 32, 32, 128)  147584      ['conv3_block2_1_relu[0][0]']

 conv3_block2_2_bn (BatchNormal  (None, 32, 32, 128)  512        ['conv3_block2_2_conv[0][0]']
 ization)

 conv3_block2_2_relu (Activatio  (None, 32, 32, 128)  0          ['conv3_block2_2_bn[0][0]']
 n)

 conv3_block2_3_conv (Conv2D)   (None, 32, 32, 512)  66048       ['conv3_block2_2_relu[0][0]']

 conv3_block2_3_bn (BatchNormal  (None, 32, 32, 512)  2048       ['conv3_block2_3_conv[0][0]']
 ization)

 conv3_block2_add (Add)         (None, 32, 32, 512)  0           ['conv3_block1_out[0][0]',
                                                                  'conv3_block2_3_bn[0][0]']

 conv3_block2_out (Activation)  (None, 32, 32, 512)  0           ['conv3_block2_add[0][0]']

 conv3_block3_1_conv (Conv2D)   (None, 32, 32, 128)  65664       ['conv3_block2_out[0][0]']

 conv3_block3_1_bn (BatchNormal  (None, 32, 32, 128)  512        ['conv3_block3_1_conv[0][0]']
 ization)

 conv3_block3_1_relu (Activatio  (None, 32, 32, 128)  0          ['conv3_block3_1_bn[0][0]']
 n)

 conv3_block3_2_conv (Conv2D)   (None, 32, 32, 128)  147584      ['conv3_block3_1_relu[0][0]']

 conv3_block3_2_bn (BatchNormal  (None, 32, 32, 128)  512        ['conv3_block3_2_conv[0][0]']
 ization)

 conv3_block3_2_relu (Activatio  (None, 32, 32, 128)  0          ['conv3_block3_2_bn[0][0]']
 n)

 conv3_block3_3_conv (Conv2D)   (None, 32, 32, 512)  66048       ['conv3_block3_2_relu[0][0]']

 conv3_block3_3_bn (BatchNormal  (None, 32, 32, 512)  2048       ['conv3_block3_3_conv[0][0]']
 ization)

 conv3_block3_add (Add)         (None, 32, 32, 512)  0           ['conv3_block2_out[0][0]',
                                                                  'conv3_block3_3_bn[0][0]']

 conv3_block3_out (Activation)  (None, 32, 32, 512)  0           ['conv3_block3_add[0][0]']

 conv3_block4_1_conv (Conv2D)   (None, 32, 32, 128)  65664       ['conv3_block3_out[0][0]']

 conv3_block4_1_bn (BatchNormal  (None, 32, 32, 128)  512        ['conv3_block4_1_conv[0][0]']
 ization)

 conv3_block4_1_relu (Activatio  (None, 32, 32, 128)  0          ['conv3_block4_1_bn[0][0]']
 n)

 conv3_block4_2_conv (Conv2D)   (None, 32, 32, 128)  147584      ['conv3_block4_1_relu[0][0]']

 conv3_block4_2_bn (BatchNormal  (None, 32, 32, 128)  512        ['conv3_block4_2_conv[0][0]']
 ization)

 conv3_block4_2_relu (Activatio  (None, 32, 32, 128)  0          ['conv3_block4_2_bn[0][0]']
 n)

 conv3_block4_3_conv (Conv2D)   (None, 32, 32, 512)  66048       ['conv3_block4_2_relu[0][0]']

 conv3_block4_3_bn (BatchNormal  (None, 32, 32, 512)  2048       ['conv3_block4_3_conv[0][0]']
 ization)

 conv3_block4_add (Add)         (None, 32, 32, 512)  0           ['conv3_block3_out[0][0]',
                                                                  'conv3_block4_3_bn[0][0]']

 conv3_block4_out (Activation)  (None, 32, 32, 512)  0           ['conv3_block4_add[0][0]']

 conv4_block1_1_conv (Conv2D)   (None, 16, 16, 256)  131328      ['conv3_block4_out[0][0]']

 conv4_block1_1_bn (BatchNormal  (None, 16, 16, 256)  1024       ['conv4_block1_1_conv[0][0]']
 ization)

 conv4_block1_1_relu (Activatio  (None, 16, 16, 256)  0          ['conv4_block1_1_bn[0][0]']
 n)

 conv4_block1_2_conv (Conv2D)   (None, 16, 16, 256)  590080      ['conv4_block1_1_relu[0][0]']

 conv4_block1_2_bn (BatchNormal  (None, 16, 16, 256)  1024       ['conv4_block1_2_conv[0][0]']
 ization)

 conv4_block1_2_relu (Activatio  (None, 16, 16, 256)  0          ['conv4_block1_2_bn[0][0]']
 n)

 conv4_block1_0_conv (Conv2D)   (None, 16, 16, 1024  525312      ['conv3_block4_out[0][0]']
                                )

 conv4_block1_3_conv (Conv2D)   (None, 16, 16, 1024  263168      ['conv4_block1_2_relu[0][0]']
                                )

 conv4_block1_0_bn (BatchNormal  (None, 16, 16, 1024  4096       ['conv4_block1_0_conv[0][0]']
 ization)                       )

 conv4_block1_3_bn (BatchNormal  (None, 16, 16, 1024  4096       ['conv4_block1_3_conv[0][0]']
 ization)                       )

 conv4_block1_add (Add)         (None, 16, 16, 1024  0           ['conv4_block1_0_bn[0][0]',
                                )                                 'conv4_block1_3_bn[0][0]']

 conv4_block1_out (Activation)  (None, 16, 16, 1024  0           ['conv4_block1_add[0][0]']
                                )

 conv4_block2_1_conv (Conv2D)   (None, 16, 16, 256)  262400      ['conv4_block1_out[0][0]']

 conv4_block2_1_bn (BatchNormal  (None, 16, 16, 256)  1024       ['conv4_block2_1_conv[0][0]']
 ization)

 conv4_block2_1_relu (Activatio  (None, 16, 16, 256)  0          ['conv4_block2_1_bn[0][0]']
 n)

 conv4_block2_2_conv (Conv2D)   (None, 16, 16, 256)  590080      ['conv4_block2_1_relu[0][0]']

 conv4_block2_2_bn (BatchNormal  (None, 16, 16, 256)  1024       ['conv4_block2_2_conv[0][0]']
 ization)

 conv4_block2_2_relu (Activatio  (None, 16, 16, 256)  0          ['conv4_block2_2_bn[0][0]']
 n)

 conv4_block2_3_conv (Conv2D)   (None, 16, 16, 1024  263168      ['conv4_block2_2_relu[0][0]']
                                )

 conv4_block2_3_bn (BatchNormal  (None, 16, 16, 1024  4096       ['conv4_block2_3_conv[0][0]']
 ization)                       )

 conv4_block2_add (Add)         (None, 16, 16, 1024  0           ['conv4_block1_out[0][0]',
                                )                                 'conv4_block2_3_bn[0][0]']

 conv4_block2_out (Activation)  (None, 16, 16, 1024  0           ['conv4_block2_add[0][0]']
                                )

 conv4_block3_1_conv (Conv2D)   (None, 16, 16, 256)  262400      ['conv4_block2_out[0][0]']

 conv4_block3_1_bn (BatchNormal  (None, 16, 16, 256)  1024       ['conv4_block3_1_conv[0][0]']
 ization)

 conv4_block3_1_relu (Activatio  (None, 16, 16, 256)  0          ['conv4_block3_1_bn[0][0]']
 n)

 conv4_block3_2_conv (Conv2D)   (None, 16, 16, 256)  590080      ['conv4_block3_1_relu[0][0]']

 conv4_block3_2_bn (BatchNormal  (None, 16, 16, 256)  1024       ['conv4_block3_2_conv[0][0]']
 ization)

 conv4_block3_2_relu (Activatio  (None, 16, 16, 256)  0          ['conv4_block3_2_bn[0][0]']
 n)

 conv4_block3_3_conv (Conv2D)   (None, 16, 16, 1024  263168      ['conv4_block3_2_relu[0][0]']
                                )

 conv4_block3_3_bn (BatchNormal  (None, 16, 16, 1024  4096       ['conv4_block3_3_conv[0][0]']
 ization)                       )

 conv4_block3_add (Add)         (None, 16, 16, 1024  0           ['conv4_block2_out[0][0]',
                                )                                 'conv4_block3_3_bn[0][0]']

 conv4_block3_out (Activation)  (None, 16, 16, 1024  0           ['conv4_block3_add[0][0]']
                                )

 conv4_block4_1_conv (Conv2D)   (None, 16, 16, 256)  262400      ['conv4_block3_out[0][0]']

 conv4_block4_1_bn (BatchNormal  (None, 16, 16, 256)  1024       ['conv4_block4_1_conv[0][0]']
 ization)

 conv4_block4_1_relu (Activatio  (None, 16, 16, 256)  0          ['conv4_block4_1_bn[0][0]']
 n)

 conv4_block4_2_conv (Conv2D)   (None, 16, 16, 256)  590080      ['conv4_block4_1_relu[0][0]']

 conv4_block4_2_bn (BatchNormal  (None, 16, 16, 256)  1024       ['conv4_block4_2_conv[0][0]']
 ization)

 conv4_block4_2_relu (Activatio  (None, 16, 16, 256)  0          ['conv4_block4_2_bn[0][0]']
 n)

 conv4_block4_3_conv (Conv2D)   (None, 16, 16, 1024  263168      ['conv4_block4_2_relu[0][0]']
                                )

 conv4_block4_3_bn (BatchNormal  (None, 16, 16, 1024  4096       ['conv4_block4_3_conv[0][0]']
 ization)                       )

 conv4_block4_add (Add)         (None, 16, 16, 1024  0           ['conv4_block3_out[0][0]',
                                )                                 'conv4_block4_3_bn[0][0]']

 conv4_block4_out (Activation)  (None, 16, 16, 1024  0           ['conv4_block4_add[0][0]']
                                )

 conv4_block5_1_conv (Conv2D)   (None, 16, 16, 256)  262400      ['conv4_block4_out[0][0]']

 conv4_block5_1_bn (BatchNormal  (None, 16, 16, 256)  1024       ['conv4_block5_1_conv[0][0]']
 ization)

 conv4_block5_1_relu (Activatio  (None, 16, 16, 256)  0          ['conv4_block5_1_bn[0][0]']
 n)

 conv4_block5_2_conv (Conv2D)   (None, 16, 16, 256)  590080      ['conv4_block5_1_relu[0][0]']

 conv4_block5_2_bn (BatchNormal  (None, 16, 16, 256)  1024       ['conv4_block5_2_conv[0][0]']
 ization)

 conv4_block5_2_relu (Activatio  (None, 16, 16, 256)  0          ['conv4_block5_2_bn[0][0]']
 n)

 conv4_block5_3_conv (Conv2D)   (None, 16, 16, 1024  263168      ['conv4_block5_2_relu[0][0]']
                                )

 conv4_block5_3_bn (BatchNormal  (None, 16, 16, 1024  4096       ['conv4_block5_3_conv[0][0]']
 ization)                       )

 conv4_block5_add (Add)         (None, 16, 16, 1024  0           ['conv4_block4_out[0][0]',
                                )                                 'conv4_block5_3_bn[0][0]']

 conv4_block5_out (Activation)  (None, 16, 16, 1024  0           ['conv4_block5_add[0][0]']
                                )

 conv4_block6_1_conv (Conv2D)   (None, 16, 16, 256)  262400      ['conv4_block5_out[0][0]']

 conv4_block6_1_bn (BatchNormal  (None, 16, 16, 256)  1024       ['conv4_block6_1_conv[0][0]']
 ization)

 conv4_block6_1_relu (Activatio  (None, 16, 16, 256)  0          ['conv4_block6_1_bn[0][0]']
 n)

 conv4_block6_2_conv (Conv2D)   (None, 16, 16, 256)  590080      ['conv4_block6_1_relu[0][0]']

 conv4_block6_2_bn (BatchNormal  (None, 16, 16, 256)  1024       ['conv4_block6_2_conv[0][0]']
 ization)

 conv4_block6_2_relu (Activatio  (None, 16, 16, 256)  0          ['conv4_block6_2_bn[0][0]']
 n)

 conv4_block6_3_conv (Conv2D)   (None, 16, 16, 1024  263168      ['conv4_block6_2_relu[0][0]']
                                )

 conv4_block6_3_bn (BatchNormal  (None, 16, 16, 1024  4096       ['conv4_block6_3_conv[0][0]']
 ization)                       )

 conv4_block6_add (Add)         (None, 16, 16, 1024  0           ['conv4_block5_out[0][0]',
                                )                                 'conv4_block6_3_bn[0][0]']

 conv4_block6_out (Activation)  (None, 16, 16, 1024  0           ['conv4_block6_add[0][0]']
                                )

 average_pooling2d (AveragePool  (None, 1, 1, 1024)  0           ['conv4_block6_out[0][0]']
 ing2D)

 conv2d (Conv2D)                (None, 1, 1, 256)    262144      ['average_pooling2d[0][0]']

 batch_normalization (BatchNorm  (None, 1, 1, 256)   1024        ['conv2d[0][0]']
 alization)

 conv2d_1 (Conv2D)              (None, 16, 16, 256)  262144      ['conv4_block6_out[0][0]']

 conv2d_2 (Conv2D)              (None, 16, 16, 256)  2359296     ['conv4_block6_out[0][0]']

 conv2d_3 (Conv2D)              (None, 16, 16, 256)  2359296     ['conv4_block6_out[0][0]']

 conv2d_4 (Conv2D)              (None, 16, 16, 256)  2359296     ['conv4_block6_out[0][0]']

 activation (Activation)        (None, 1, 1, 256)    0           ['batch_normalization[0][0]']

 batch_normalization_1 (BatchNo  (None, 16, 16, 256)  1024       ['conv2d_1[0][0]']
 rmalization)

 batch_normalization_2 (BatchNo  (None, 16, 16, 256)  1024       ['conv2d_2[0][0]']
 rmalization)

 batch_normalization_3 (BatchNo  (None, 16, 16, 256)  1024       ['conv2d_3[0][0]']
 rmalization)

 batch_normalization_4 (BatchNo  (None, 16, 16, 256)  1024       ['conv2d_4[0][0]']
 rmalization)

 up_sampling2d (UpSampling2D)   (None, 16, 16, 256)  0           ['activation[0][0]']

 activation_1 (Activation)      (None, 16, 16, 256)  0           ['batch_normalization_1[0][0]']

 activation_2 (Activation)      (None, 16, 16, 256)  0           ['batch_normalization_2[0][0]']

 activation_3 (Activation)      (None, 16, 16, 256)  0           ['batch_normalization_3[0][0]']

 activation_4 (Activation)      (None, 16, 16, 256)  0           ['batch_normalization_4[0][0]']

 concatenate (Concatenate)      (None, 16, 16, 1280  0           ['up_sampling2d[0][0]',
                                )                                 'activation_1[0][0]',
                                                                  'activation_2[0][0]',
                                                                  'activation_3[0][0]',
                                                                  'activation_4[0][0]']

 conv2d_5 (Conv2D)              (None, 16, 16, 256)  327680      ['concatenate[0][0]']

 batch_normalization_5 (BatchNo  (None, 16, 16, 256)  1024       ['conv2d_5[0][0]']
 rmalization)

 conv2d_6 (Conv2D)              (None, 64, 64, 48)   12288       ['conv2_block2_out[0][0]']

 activation_5 (Activation)      (None, 16, 16, 256)  0           ['batch_normalization_5[0][0]']

 batch_normalization_6 (BatchNo  (None, 64, 64, 48)  192         ['conv2d_6[0][0]']
 rmalization)

 up_sampling2d_1 (UpSampling2D)  (None, 64, 64, 256)  0          ['activation_5[0][0]']

 activation_6 (Activation)      (None, 64, 64, 48)   0           ['batch_normalization_6[0][0]']

 concatenate_1 (Concatenate)    (None, 64, 64, 304)  0           ['up_sampling2d_1[0][0]',
                                                                  'activation_6[0][0]']

 global_average_pooling2d (Glob  (None, 304)         0           ['concatenate_1[0][0]']
 alAveragePooling2D)

 reshape (Reshape)              (None, 1, 1, 304)    0           ['global_average_pooling2d[0][0]'
                                                                 ]

 dense (Dense)                  (None, 1, 1, 38)     11552       ['reshape[0][0]']

 dense_1 (Dense)                (None, 1, 1, 304)    11552       ['dense[0][0]']

 tf.math.multiply (TFOpLambda)  (None, 64, 64, 304)  0           ['concatenate_1[0][0]',
                                                                  'dense_1[0][0]']

 conv2d_7 (Conv2D)              (None, 64, 64, 256)  700416      ['tf.math.multiply[0][0]']

 batch_normalization_7 (BatchNo  (None, 64, 64, 256)  1024       ['conv2d_7[0][0]']
 rmalization)

 activation_7 (Activation)      (None, 64, 64, 256)  0           ['batch_normalization_7[0][0]']

 conv2d_8 (Conv2D)              (None, 64, 64, 256)  589824      ['activation_7[0][0]']

 batch_normalization_8 (BatchNo  (None, 64, 64, 256)  1024       ['conv2d_8[0][0]']
 rmalization)

 activation_8 (Activation)      (None, 64, 64, 256)  0           ['batch_normalization_8[0][0]']

 global_average_pooling2d_1 (Gl  (None, 256)         0           ['activation_8[0][0]']
 obalAveragePooling2D)

 reshape_1 (Reshape)            (None, 1, 1, 256)    0           ['global_average_pooling2d_1[0][0
                                                                 ]']

 dense_2 (Dense)                (None, 1, 1, 32)     8192        ['reshape_1[0][0]']

 dense_3 (Dense)                (None, 1, 1, 256)    8192        ['dense_2[0][0]']

 tf.math.multiply_1 (TFOpLambda  (None, 64, 64, 256)  0          ['activation_8[0][0]',
 )                                                                'dense_3[0][0]']

 up_sampling2d_2 (UpSampling2D)  (None, 256, 256, 25  0          ['tf.math.multiply_1[0][0]']
                                6)

 conv2d_9 (Conv2D)              (None, 256, 256, 1)  257         ['up_sampling2d_2[0][0]']

 activation_9 (Activation)      (None, 256, 256, 1)  0           ['conv2d_9[0][0]']

==================================================================================================
Total params: 17,869,697
Trainable params: 17,834,913
Non-trainable params: 34,784
__________________________________________________________________________________________________
None
2022-06-15 15:27:59.314115: W tensorflow/core/common_runtime/bfc_allocator.cc:462] Allocator (GPU_0_bfc) ran out of memory trying to allocate 5.86GiB (rounded to 6291456000)requested by op _EagerConst
…
